…
=============== RUN 1562803 ===============
Running ...
Namespace(alpha=2.0, batch_size=128, data_dir='/srv/tempdd/svenkata/Datasets/data', dataset='cifar10', decay=0.0001, epochs=2000, gammas=[0.1, 0.1, 0.1], lr_=0.1, manualSeed=None, momentum=0.9, network='wideresnet', ngpu=1, num_classes=10, resume='', save_dir='/nfs/pyrex/raid6/svenkata/weights/AlignMixup_CVPR22/cifar10/', schedule=[500, 1000, 1500], start_epoch=0, workers=8)
Files already downloaded and verified
Files already downloaded and verified
| Wide-Resnet 16x8
DataParallel(
  (module): WideResNet_classifier(
    (encoder): Wide_ResNet(
      (conv1): Conv2d(3, 16, kernel_size=(3, 3), stride=(1, 1), padding=(1, 1))
      (layer1): Sequential(
        (0): wide_basic(
          (bn1): BatchNorm2d(16, eps=1e-05, momentum=0.1, affine=True, track_running_stats=True)
          (conv1): Conv2d(16, 128, kernel_size=(3, 3), stride=(1, 1), padding=(1, 1))
          (bn2): BatchNorm2d(128, eps=1e-05, momentum=0.1, affine=True, track_running_stats=True)
          (conv2): Conv2d(128, 128, kernel_size=(3, 3), stride=(1, 1), padding=(1, 1))
          (shortcut): Sequential(
            (0): Conv2d(16, 128, kernel_size=(1, 1), stride=(1, 1))
          )
        )
        (1): wide_basic(
          (bn1): BatchNorm2d(128, eps=1e-05, momentum=0.1, affine=True, track_running_stats=True)
          (conv1): Conv2d(128, 128, kernel_size=(3, 3), stride=(1, 1), padding=(1, 1))
          (bn2): BatchNorm2d(128, eps=1e-05, momentum=0.1, affine=True, track_running_stats=True)
          (conv2): Conv2d(128, 128, kernel_size=(3, 3), stride=(1, 1), padding=(1, 1))
          (shortcut): Sequential()
        )
      )
      (layer2): Sequential(
        (0): wide_basic(
          (bn1): BatchNorm2d(128, eps=1e-05, momentum=0.1, affine=True, track_running_stats=True)
          (conv1): Conv2d(128, 256, kernel_size=(3, 3), stride=(1, 1), padding=(1, 1))
          (bn2): BatchNorm2d(256, eps=1e-05, momentum=0.1, affine=True, track_running_stats=True)
          (conv2): Conv2d(256, 256, kernel_size=(3, 3), stride=(2, 2), padding=(1, 1))
          (shortcut): Sequential(
            (0): Conv2d(128, 256, kernel_size=(1, 1), stride=(2, 2))
          )
        )
        (1): wide_basic(
          (bn1): BatchNorm2d(256, eps=1e-05, momentum=0.1, affine=True, track_running_stats=True)
          (conv1): Conv2d(256, 256, kernel_size=(3, 3), stride=(1, 1), padding=(1, 1))
          (bn2): BatchNorm2d(256, eps=1e-05, momentum=0.1, affine=True, track_running_stats=True)
          (conv2): Conv2d(256, 256, kernel_size=(3, 3), stride=(1, 1), padding=(1, 1))
          (shortcut): Sequential()
        )
      )
      (layer3): Sequential(
        (0): wide_basic(
          (bn1): BatchNorm2d(256, eps=1e-05, momentum=0.1, affine=True, track_running_stats=True)
          (conv1): Conv2d(256, 512, kernel_size=(3, 3), stride=(1, 1), padding=(1, 1))
          (bn2): BatchNorm2d(512, eps=1e-05, momentum=0.1, affine=True, track_running_stats=True)
          (conv2): Conv2d(512, 512, kernel_size=(3, 3), stride=(2, 2), padding=(1, 1))
          (shortcut): Sequential(
            (0): Conv2d(256, 512, kernel_size=(1, 1), stride=(2, 2))
          )
        )
        (1): wide_basic(
          (bn1): BatchNorm2d(512, eps=1e-05, momentum=0.1, affine=True, track_running_stats=True)
          (conv1): Conv2d(512, 512, kernel_size=(3, 3), stride=(1, 1), padding=(1, 1))
          (bn2): BatchNorm2d(512, eps=1e-05, momentum=0.1, affine=True, track_running_stats=True)
          (conv2): Conv2d(512, 512, kernel_size=(3, 3), stride=(1, 1), padding=(1, 1))
          (shortcut): Sequential()
        )
      )
      (bn1): BatchNorm2d(512, eps=1e-05, momentum=0.9, affine=True, track_running_stats=True)
    )
    (classifier): Linear(in_features=512, out_features=10, bias=True)
  )
)
epoch: 0 --> Train loss = 0.0157 Train Accuracy = 22.4460 
------> epoch: 0 --> Test loss = 0.0149 Test Accuracy = 35.7800 
Saving..
epoch: 1 --> Train loss = 0.0136 Train Accuracy = 32.9100 
------> epoch: 1 --> Test loss = 0.0087 Test Accuracy = 60.9400 
Saving..
epoch: 2 --> Train loss = 0.0127 Train Accuracy = 37.1420 
------> epoch: 2 --> Test loss = 0.0132 Test Accuracy = 51.5900 
…
